…
S","colab":{"base_uri":"https://localhost:8080/"},"executionInfo":{"status":"ok","timestamp":1667390592205,"user_tz":0,"elapsed":86776,"user":{"displayName":"Ted Pitman","userId":"14049291477165845436"}},"outputId":"359a0658-0ef5-4a58-bcc0-8c4d5576f605"},"execution_count":2,"outputs":[{"output_type":"stream","name":"stdout","text":["Model: \"sequential\"\n","_________________________________________________________________\n"," Layer (type)                Output Shape              Param #   \n","=================================================================\n"," embedding (Embedding)       (None, 200, 16)           336       \n","                                                                 \n"," conv1d (Conv1D)             (None, 196, 16)           1296      \n","                                                                 \n"," max_pooling1d (MaxPooling1D  (None, 49, 16)           0         \n"," )                                                               \n","                                                                 \n"," conv1d_1 (Conv1D)           (None, 47, 16)            784       \n","                                                                 \n"," max_pooling1d_1 (MaxPooling  (None, 23, 16)           0         \n"," 1D)                                                             \n","                                                                 \n"," conv1d_2 (Conv1D)           (None, 21, 16)            784       \n","                                                                 \n"," max_pooling1d_2 (MaxPooling  (None, 10, 16)           0         \n"," 1D)                                                             \n","                                                                 \n"," flatten (Flatten)           (None, 160)               0         \n","                                                                 \n"," dense (Dense)               (None, 256)               41216     \n","                                                                 \n"," dense_1 (Dense)             (None, 256)               65792     \n","                                                                 \n"," dropout (Dropout)           (None, 256)               0         \n","                                                                 \n"," dense_2 (Dense)             (None, 128)               32896     \n","                                                                 \n"," dense_3 (Dense)             (None, 64)                8256      \n","                                                                 \n"," dense_4 (Dense)             (None, 1)                 65        \n","                                                                 \n","=================================================================\n","Total params: 151,425\n","Trainable params: 151,425\n","Non-trainable params: 0\n","_________________________________________________________________\n"]}]},{"cell_type":"code","source":["plt.plot(result.history[\"loss\"], label=\"training\")\n","
…
